data.pth (torch, 4887 bytes, 6 tensors)

l1.weight f4 [8, 49]
0	0xbcec148e	-0.028818395
1	0x3ee5a3f6	0.44851655
2	0x3e3999e3	0.1812511
3	0x3ee39b69	0.44454506
4	0x3e0823f6	0.13294968
5	0xbeda7983	-0.4267083
6	0xbedf9d03	-0.43674478
7	0xbd3b621f	-0.045747872
8	0x3ddbce38	0.107326925
9	0x3dd97ae4	0.10619143
10	0x3e9c0034	0.30468905
11	0x3e62e24b	0.22156636
12	0xbe624684	-0.22097212
13	0x3eeeb897	0.46625206
14	0x3ec72187	0.38892767
15	0xbeeb7219	-0.45985487
16	0x3cc5305c	0.024070911
17	0x3f2578a7	0.64637226
18	0xbeb11558	-0.34586596
19	0x3f016447	0.50543636
20	0x3f436561	0.76326567
21	0x3f2b2655	0.66855365
22	0xbde171a5	-0.11008004
23	0x3e9f98c2	0.31171232
24	0x3f2015d1	0.6253329
25	0xbe1568c9	-0.14590754
26	0x3f0cd3e0	0.55010796
27	0xbe236805	-0.15957649
28	0xbeb70603	-0.35746774
29	0x3de5ba8d	0.11217222
30	0x3eab25e0	0.33427334
31	0x3d69c89b	0.057076078
32	0xbe2a0300	-0.16602707
33	0xbd1b1148	-0.037858278
34	0xbd884533	-0.06653824
35	0xbd9d8cd3	-0.07692876
36	0xbeb248cf	-0.34821174
37	0xbd529338	-0.05140993
38	0x3f02591f	0.5091724
39	0x3e52ef76	0.2059916
40	0x3f181af6	0.5941614
41	0xbf2d0764	-0.675894
42	0xbe7632db	-0.24042837
43	0x3ed51947	0.41620848
44	0xbdb41469	-0.087929554
45	0xbf0df9a5	-0.5545905
46	0xbdba3397	-0.09091871
47	0x3d789f9b	0.060699087
48	0x3e1a718a	0.15082374
49	0xbecbf97c	-0.3983878
50	0x3ea3c915	0.3198935
51	0x3ee23228	0.4417889
52	0xbe81f54b	-0.25382456
53	0xbeaeae6c	-0.34117448
54	0x3f550b97	0.8322081
55	0x3ea08885	0.31354156
56	0x3eb30a93	0.34969005
57	0x3f0d32a1	0.5515538
58	0x3e98d611	0.2985082
59	0xbe4927b7	-0.19644056
60	0x3ed7430c	0.4204334
61	0xbdccc462	-0.099983945
62	0x3e6e4d12	0.23271587
63	0xbebfbad9	-0.3744724
64	0x3f5a4913	0.8526775
65	0x3e788d8b	0.24272744
66	0xbef36def	-0.4754481
67	0x3e838ee3	0.2569495
68	0xbf0cfcc1	-0.5507317
69	0xbf21ad67	-0.63155216
70	0xbf09a958	-0.53774023
71	0x3e2217d8	0.15829408
72	0xbe938adc	-0.2881688
73	0x3e48d6bd	0.19613166
74	0x3e5f956d	0.21834345
75	0x3c8518a2	0.016247097
76	0x3f0e50de	0.55592144
77	0xbdb3f7ec	-0.08787522
78	0x3edd277f	0.43194196
79	0x3f129669	0.5726076
80	0xbe45eb61	-0.19328071
81	0x3ea3dc92	0.3200422
82	0x3f16a4ae	0.5884503
83	0x3e3a6a6c	0.18204659
84	0x3eaf5402	0.3424378
85	0x3f17eeec	0.5934894
86	0x3e83146c	0.25601518
87	0x3e06c418	0.13160741
88	0x3ece8eef	0.40343425
89	0x3ebe93aa	0.37222034
90	0xbf29fd5f	-0.6640224
91	0xbee5c88e	-0.44879574
92	0xbdf50d8e	-0.11965476
93	0x3c58cdb3	0.013232636
94	0xbf09aceb	-0.53779477
95	0x3ea5c8b3	0.32379684
96	0x3e5e6bbe	0.21720788
97	0xbdafb3c3	-0.08579209
98	0xbe05bbf5	-0.13059981
99	0xbdc7f441	-0.097633846
100	0x3ce0219c	0.027359776
101	0xbdfd26ac	-0.12360892
102	0xbd0aa18e	-0.033845477
103	0xbc87005c	-0.016479664
104	0x3e0ad916	0.13559374
105	0x3dbfdef1	0.093686946
106	0x3c41cb01	0.011828185
107	0x3db386e7	0.08765965
108	0x3d7873ca	0.0606573
109	0xbd29b88e	-0.04143577
110	0xbe101cd4	-0.14073497
111	0x3d4dc7f7	0.05023953
112	0xbd8d9c40	-0.06914568
113	0x3cfa8d53	0.030584967
114	0xbe0dfe6b	-0.13866584
115	0x3d32a2ae	0.043612175
116	0x3dac38d0	0.084092736
117	0xbd665c8e	-0.05624061
118	0xbc7a7613	-0.01528694
119	0x3dc4b501	0.09604836
120	0xbda837c5	-0.08213762
121	0x3e107b86	0.1410962
122	0xbda82017	-0.08209246
123	0x3e10be58	0.1413511
124	0x3d3d9857	0.04628786
125	0xbdc11e75	-0.09429637
126	0x3d295a73	0.041346025
127	0x3d0cd9ea	0.034387507
128	0xbdbc569a	-0.091962054
129	0xbcc22ef7	-0.023704035
130	0x3ddb7c15	0.10717026
131	0xbdf1ce75	-0.11806957
132	0xbd4e72dc	-0.050402507
133	0xbda14d57	-0.078760795
134	0x3b9406dc	0.0045174193
135	0xbb81324a	-0.0039427625
136	0x3d4a79c5	0.049432535
137	0xbd66a1a1	-0.056306485
138	0xbe054b72	-0.13017061
139	0x3c91ca13	0.017796552
140	0x3dfeb189	0.12436206
141	0xbdee819c	-0.11645815
142	0xbe052c12	-0.13005093
143	0x3d8130bc	0.063081235
144	0x3d39374a	0.045218743
145	0xbdd35a2e	-0.10319935
146	0xbd27cb0a	-0.040965118
147	0xbe60d934	-0.21957856
148	0x3d68f1cd	0.056871224
149	0x3f299580	0.66243744
150	0xbde629e7	-0.11238461
151	0xbe450ee6	-0.19243965
152	0x3f192afd	0.5983122
153	0x3e7df21a	0.24799386
154	0x3f04f0be	0.51929843
155	0x3ef6ecd5	0.48227564
156	0x3ef8d0c6	0.48596781
157	0xbe382a53	-0.17984895
158	0x3f162a6d	0.58658487
159	0xbda68676	-0.08131115
160	0x3da9d9fd	0.08293531
161	0xbe8de48e	-0.27713436
162	0x3f3b2379	0.73101
163	0x3e0b748e	0.13618681
164	0xbef6c455	-0.48196664
165	0x3e9c8fc9	0.3057845
166	0xbef46b51	-0.47738126
167	0xbee74eb8	-0.45177245
168	0xbefae9bc	-0.4900645
169	0x3e8e7eab	0.27831015
170	0xbe39cd57	-0.18144737
171	0x3c9f284f	0.0194284
172	0x3e15348e	0.1457083
173	0xbe056dda	-0.13030186
174	0x3f044aba	0.51676524
175	0xbdf50881	-0.119645126
176	0x3f236304	0.6382296
177	0x3e8b47f2	0.27203327
178	0x3dc351a5	0.09537057
179	0x3e436150	0.1908009
180	0x3ed739b9	0.42036226
181	0x3e6f2214	0.23352844
182	0x3e5108af	0.20413469
183	0x3f04a935	0.5182069
184	0x3de8e5ca	0.11371954
185	0x3cb88432	0.022523973
186	0x3edcc195	0.4311644
187	0x3e9de0e6	0.30835646
188	0xbf3dc3f1	-0.7412711
189	0xbecea043	-0.40356645
190	0xbe2653c8	-0.16242898
191	0x3e23afbe	0.15985009
192	0xbec1fd08	-0.3788836
193	0x3e08e39c	0.13368076
194	0x3ebf8fa6	0.37414283
195	0x3aca6b2f	0.001544332
196	0x3d858ff2	0.06521596
197	0x3f2ef7c9	0.6834684
198	0xbf34e5af	-0.7066297
199	0x3e877eed	0.26464024
200	0xbf17a2c0	-0.5923271
201	0x3f4e6503	0.8062288
202	0x3f19eaca	0.60123885
203	0xbf0981b9	-0.53713566
204	0xbe3113c8	-0.17292702
205	0xbf08cf1f	-0.5344104
206	0x3e5a1c06	0.21299753
207	0x3e8272f7	0.25478336
208	0x3ebc5cb5	0.3678948
209	0x3ee3b595	0.44474474
210	0x3e0f4634	0.13991624
211	0x3f4a9a3e	0.79141605
212	0x3eb7368c	0.35783803
213	0xbe835d1a	-0.25656968
214	0x3e3d45a2	0.18483594
215	0xbea9405a	-0.3305691
216	0x3df57712	0.119856015
217	0x3ee98de3	0.45616063
218	0x3f0c70e7	0.54859775
219	0x3e97760b	0.29582247
220	0x3f190ae6	0.59782255
221	0x3e992881	0.29913715
222	0x3ee0329c	0.43788612
223	0x3f338a14	0.70132565
224	0x3f0b24d8	0.54353094
225	0xbf371e58	-0.71530676
226	0x3efdb5ca	0.49552757
227	0xbefe503d	-0.49670592
228	0x3eaa18b2	0.33221966
229	0xbecdc2d9	-0.4018772
230	0x3f1dadc9	0.615933
231	0x3f069011	0.5256358
232	0x3f008a0f	0.5021066
233	0x3ed28410	0.4111638
234	0x3f01da74	0.5072396
235	0xbeb33751	-0.3500314
236	0x3f016cd5	0.5055669
237	0x3f6961b4	0.9116471
238	0x3ecf670d	0.4050831
239	0x3ec8bc5b	0.39206204
240	0x3d5616b8	0.05226776
241	0xbf132ee8	-0.5749345
242	0x3f2c9731	0.674182
243	0x3e4d4fb1	0.20049931
244	0xbf164f29	-0.5871454
245	0x3f2b1394	0.6682675
246	0x3de112b7	0.10989898
247	0xbe01c1e5	-0.12671621
248	0x3e26ebb5	0.16300853
249	0xbec9bdaa	-0.39402515
250	0xbf0ad345	-0.5422862
251	0x3dd3c0b0	0.103394866
252	0xbe5338f3	-0.20627193
253	0x3d41c431	0.047306243
254	0xbda35801	-0.0797577
255	0x3f07eb0c	0.5309303

l1.bias f4 [8]
0	0x3f1d8535	0.6153138
1	0x3f296ae7	0.66178745
2	0xbdc78c61	-0.09743572
3	0x3f1d63e6	0.6148056
4	0x3f7770f8	0.9665675
5	0x3f5605b5	0.8360246
6	0x3f5909af	0.847804
7	0x3f0abf5b	0.54198235

l2.weight f4 [8, 8]
0	0x3f029f9f	0.5102481
1	0xbf3d00bd	-0.7382925
2	0xbe9cbcb7	-0.30612728
3	0xbf0c0f1b	-0.5471055
4	0x3e6f21f6	0.23352799
5	0x3e8a12ce	0.26967472
6	0x3fc77491	1.5582448
7	0x3db6ec36	0.089317724
8	0xbdf5013b	-0.11963125
9	0xbe81e01c	-0.25366294
10	0x3eaedc66	0.34152526
11	0xbe4a7851	-0.1977246
12	0x3d9e1588	0.077189505
13	0xbdbd9d7d	-0.09258554
14	0x3da02180	0.078188896
15	0x3c926ac2	0.017873172
16	0xbfb417b3	-1.4069732
17	0xbf10ae93	-0.5651638
18	0x3ea8e7ba	0.32989293
19	0xbf14f629	-0.5818811
20	0x3f3ceab6	0.7379564
21	0x3f83fb3e	1.0311048
22	0x3e362a69	0.17789616
23	0xbe8e1eaf	-0.27757785
24	0x3f529c9d	0.8227022
25	0x3faf47c5	1.3693777
26	0x3dc5d40b	0.096595846
27	0x3fa65342	1.2994158
28	0x3f9d6064	1.2295041
29	0x3f05518a	0.52077544
30	0xbf151247	-0.58231014
31	0x3f1f4cb6	0.62226427
32	0x3fae8e04	1.363709
33	0xbdf65322	-0.12027575
34	0x3e97265e	0.2952146
35	0xbe069e12	-0.13146237
36	0x3f1623ff	0.58648676
37	0x3f834e66	1.02583
38	0xbf0324cc	-0.5122802
39	0x3fa11a26	1.2586105
40	0x3ecd2f44	0.40075123
41	0xbef40df3	-0.47666892
42	0xbe425b0f	-0.18980049
43	0xbecb4938	-0.397043
44	0xbd07669a	-0.033056833
45	0x3fb3db85	1.4051367
46	0x3f7ea09f	0.9946384
47	0x3dc25670	0.09489143
48	0xbf8765ac	-1.0577903
49	0x3f699d1c	0.91255355
50	0xbdcc30f5	-0.09970275
51	0x3f5bcf0a	0.8586279
52	0x3f18889e	0.5958346
53	0x3e550c8a	0.20805565
54	0x3f9955a7	1.1979264
55	0xbf75fe6f	-0.9609136
56	0x3e597527	0.21236096
57	0x3e9f5ece	0.31127018
58	0x3e6056d6	0.21908125
59	0x3f500a16	0.8126539
60	0xbfa2ce31	-1.2719175
61	0xbf6235ab	-0.8836314
62	0x3f181c87	0.5941853
63	0x3f3f48dd	0.74720556

l2.bias f4 [8]
0	0x3f07c656	0.5303701
1	0xbea0b1cb	-0.31385645
2	0x3e290f2e	0.16509697
3	0x3ee16375	0.44021192
4	0x3eabd4c8	0.33560777
5	0x3eaf8bd3	0.34286365
6	0x3e9a023a	0.30079824
7	0x3eab44ad	0.33450833

l3.weight f4 [7, 8]
0	0x3edd8c8f	0.432713
1	0x3dbcb463	0.092140935
2	0xbf40045b	-0.75006646
3	0xbfc4ed48	-1.5384912
4	0xbf87543a	-1.0572579
5	0x3e85d6ca	0.26140434
6	0x3e0bc6c8	0.13650048
7	0x3f0128ae	0.504527
8	0xbc84054a	-0.016115803
9	0xbe2d53db	-0.1692652
10	0xbf821fa6	-1.0165908
11	0xbe347934	-0.1762436
12	0xbf94f544	-1.1637349
13	0xbe5bd972	-0.21469668
14	0x3f143cdd	0.5790537
15	0xbf75d40b	-0.96026677
16	0xbf918cb9	-1.137107
17	0xbdcf4a3e	-0.101215824
18	0xbf905e71	-1.1278821
19	0x3f16dac4	0.5892756
20	0x3f0482d1	0.5176211
21	0xbf9d4fb5	-1.228995
22	0xbfdfdce7	-1.7489289
23	0xbd88cc91	-0.06679643
24	0xbfb77f8d	-1.43358
25	0x3d30f362	0.043200858
26	0xbfb6ae0a	-1.4271863
27	0x3f2d8ecb	0.6779601
28	0xbee5ba5b	-0.4486874
29	0xbfcee193	-1.616259
30	0x3ed01352	0.4063974
31	0xbfa4ef6f	-1.2885569
32	0x3e829710	0.25505877
33	0xbdd2f389	-0.10300357
34	0xbf769efb	-0.96336335
35	0xbddae610	-0.10688412
36	0x3ec9cc52	0.39413697
37	0x3f30e076	0.690925
38	0xbfc687f6	-1.5510242
39	0xbf4668ec	-0.7750385
40	0xbf968662	-1.175976
41	0x3e4f5191	0.20245959
42	0x3e7f72ab	0.24946086
43	0x3e5a3981	0.21310998
44	0x3dd413ac	0.103553146
45	0xbe3edeaf	-0.18639635
46	0xbedd6017	-0.43237373
47	0x3f88e0ce	1.0693605
48	0xbccedb1a	-0.02525096
49	0x3d33a2b0	0.043856323
50	0x3f5feb72	0.87468636
51	0xbf50df5a	-0.8159081
52	0xbe81c54e	-0.25345844
53	0x3eefb951	0.46821073
54	0x3daabd52	0.08336891
55	0xbf9f5cf8	-1.2450247

l3.bias f4 [7]
0	0x3e8c9d17	0.274636
1	0xbe26a10a	-0.16272369
2	0xbdc008c4	-0.09376672
3	0x3dcdf9cc	0.100574106
4	0x3ea16cc8	0.31528306
5	0xbeae2bec	-0.34017885
6	0xbe77e121	-0.24206974
